learned_policy_3.pth (torch, 181218 bytes, 9 tensors)

fc1.weight f4 [64, 625]
-0.0032922796 0.018464947 -0.035914786 -0.03243046 -0.018399581 0.007732068 -0.0037870102 0.028721226
-0.0065432535 0.0075908564 -0.015085552 -0.0108603155 -0.041210942 -0.02948735 -0.019484151 -0.0015126794
0.012819918 0.02100743 -0.030111209 -0.02041293 0.011533893 0.030220844 -0.011226741 0.026938386
-0.009440977 0.001240038 0.033226423 -0.04009961 -0.028174313 -0.0131196 -0.018586144 0.031565636
-0.028921602 -0.021406721 -0.030940352 -0.04046023 -0.026347728 0.031385895 0.014850643 0.016388822
-0.00089421833 -0.023504762 0.003770818 -0.040343165 -0.031897254 -0.023615418 0.022243043 0.020458242
-0.020733949 -0.004436788 0.022589913 0.0367727 0.012882574 0.0024109047 0.023826381 -0.026545884
0.004459471 -0.034006756 -0.030717012 -0.023659108 0.015100997 0.0130885085 -0.026691958 0.009086377
0.018960997 -0.008046644 -0.0014707714 0.0062700966 0.02181695 0.035409752 -0.033821944 -0.017653206
0.012725974 0.030147562 0.031814728 0.032301757 0.0049680555 -0.037776023 0.00068680185 -0.028017009
-0.0402721 0.03254521 0.027419915 -0.04289483 0.004490277 -0.009736495 -0.009580283 -0.021308158
0.012384339 -0.026690023 0.011665793 0.01723044 0.025636978 0.011958586 -0.042587437 -0.028945107
0.016978381 0.005377697 -0.034197845 -0.026026262 0.034637563 0.023960201 -0.020433705 -0.013060284
-0.04109672 -0.0037126117 -0.033116635 -0.033848476 -0.005198342 0.0030084564 -0.019379292 0.020737274
-0.027339421 0.033296935 0.024414098 -0.03672914 -0.012953251 -0.0011929793 0.0028381606 0.0064888974
0.012700129 -0.0005976408 -0.022511566 0.015933206 -0.041363955 -0.02670059 -0.0130058145 -0.022477146
-0.016986035 -0.03577785 -0.01150185 0.0055559 -0.029052645 -0.0050481083 0.025636174 -0.0071099787
-0.0018861701 -0.0064486624 0.005097395 0.022435678 0.034892 0.02240435 0.034978695 -0.0058907485
-0.038930822 -0.021959793 0.024242725 -0.0032537833 -0.022876073 -0.03364647 -0.04042649 -0.036752734
-0.01110609 0.018943349 0.01863266 -0.041570496 0.021956993 -0.034294315 -0.011452763 -0.019216934
-0.010702518 -0.010851615 -0.038891822 -0.037535362 -0.009257059 -0.0024806184 -0.021168878 0.012070063
-0.03900025 -0.0056971894 0.032181125 -0.019309163 0.033125795 0.011491993 -0.039092515 0.02231547
-0.0076083047 -0.02084907 0.028993241 -0.035316944 0.001298868 -0.011368694 0.025570422 0.008168882
0.016222091 0.01112852 -0.012616894 -0.011410098 -0.03596108 0.018675882 0.028761223 0.024371093
-0.031213013 -0.0012140553 -0.031194594 -0.025014099 -0.026301702 0.010675512 -0.02683061 -0.0038667032
-0.0013097015 0.022792412 -0.033229522 -0.030453471 -0.026219442 0.025003854 -0.017372007 0.030745005
0.011466797 0.0020669864 -0.0032955993 -0.010905119 0.0020207504 -0.012131666 -0.0032789407 0.00210584
-0.034286074 -0.023963155 0.029301628 -0.035458095 -0.0058660433 0.03657555 0.011455466 -0.0018615642
-0.037658334 0.016822997 -0.031483635 -0.014347379 -0.01641372 -0.008916825 -0.0025559596 0.029999148
0.0019981172 0.032829814 0.021470526 -0.02828644 0.014942287 -0.031273704 -0.019950887 0.008767
0.0102097755 0.027011238 -0.015874555 -0.002933933 0.01759776 -0.04167701 0.02592592 -0.03607061
-0.0024428573 -0.009794617 -0.024059616 0.0022939437 0.030084956 -0.014684792 -0.026740085 -0.017786168
00000000: 49c3 57bb cd43 973c 621b 13bd cdd5 04bd
00000010: b8ba 96bc 4a5d fd3b 7d2f 78bb c748 eb3c
00000020: ca68 d6bb b8bc f83b 6429 77bc 77ef 31bc
00000030: cecc 28bd 748f f1bc 3a9d 9fbc 1945 c6ba
00000040: a20a 523c c617 ac3c c8ab f6bc 0439 a7bc
00000050: a7f8 3c3c b491 f73c 5df0 37bc e4ad dc3c
00000060: 54ae 1abc c588 a23a 6e18 083d 7d3f 24bd
00000070: d1cd e6bc 97f3 56bc f841 98bc f84a 013d
00000080: ffec ecbc 265d afbc 9f76 fdbc a0b9 25bd
00000090: 31d7 d7bc 7f8e 003d 1d50 733c da41 863c
000000a0: fa69 6aba 0f8d c0bc d41f 773b e03e 25bd
000000b0: b2a6 02bd 1f75 c1bc 0b37 b63c 0b98 a73c
000000c0: 3eda a9bc 7a62 91bb 7b0e b93c f89e 163d
000000d0: 6f11 533c 4500 1e3b 8b2f c33c c176 d9bc
000000e0: c120 923b ab4a 0bbd 3ea2 fbbc bfd0 c1bc
000000f0: 2c6a 773c 2f71 563c 18a9 dabc 07df 143c
00000100: 1854 9b3c 12d6 03bc e6c6 c0ba 6275 cd3b
00000110: 76b9 b23c d109 113d e188 0abd 759d 90bc
00000120: 9b80 503c 05f8 f63c 2950 023d d94e 043d
00000130: 12cb a23b 08bb 1abd 7e0a 343a ed83 e5bc
00000140: 5cf4 24bd 204e 053d bb9f e03c 7db2 2fbd
00000150: 2c23 933b d285 1fbc 9ff6 1cbc 728e aebc
00000160: afe7 4a3c 09a5 dabc e221 3f3c da26 8d3c
00000170: a404 d23c f2ed 433c 2a70 2ebd 4a1e edbc
00000180: 3f16 8b3c 6437 b03b 0a13 0cbd 0735 d5bc
00000190: 1ee0 0d3d 2f48 c43c 9664 a7bc cdfa 55bc
000001a0: 0955 28bd 4a4f 73bb 4fa5 07bd b3a4 0abd
000001b0: da56 aabb 8629 453b 52c1 9ebc 37e1 a93c
000001c0: ecf6 dfbc 5e62 083d 1300 c83c 4b71 16bd
000001d0: df39 54bc be5d 9cba 6f00 3a3b d1a0 d43b
000001e0: 3414 503c ffaa 1cba 2d6a b8bc 5b86 823c
000001f0: 406d 29bd 32bb dabc 5716 55bc fe21 b8bc
00000200: 4c26 8bbc cb8b 12bd 4172 3cbc 440e b63b
00000210: d0ff edbc 9a6a a5bb f402 d23c d3fa e8bb
00000220: 5e39 f7ba 4d4f d3bb 0c08 a73b 07cb b73c
00000230: eaea 0e3d 5489 b73c d245 0f3d 2e07 c1bb
00000240: ed75 1fbd 06e5 b3bc ae98 c63c 6d3d 55bb
00000250: 9a66 bbbc e2d0 09bd 3f96 25bd 098a 16bd
00000260: 51f6 35bc 152f 9b3c 85a3 983c d345 2abd
00000270: 27df b33c 3278 0cbd 5fa4 3bbc d56c 9dbc
00000280: 9d59 2fbc f9ca 31bc 084d 1fbd aebe 19bd
00000290: ebaa 17bc df91 22bb 5b6a adbc 83c1 453c
000002a0: babe 1fbd 7daf babb 5bd0 033d 402e 9ebc
000002b0: eaae 073d ea48 3c3c 791f 20bd efce b63c
000002c0: 164f f9bb abcb aabc 3c83 ed3c 80a8 10bd
000002d0: c73e aa3a c243 3abc 1079 d13c c6d6 053c
000002e0: 31e4 843c 6554 363c 17b7 4ebc 6bf1 3abc
000002f0: ed4b 13bd 2afe 983c a89c eb3c e3a5 c73c
00000300: 6fb2 ffbc f020 9fba ce8b ffbc 5eea ccbc
00000310: ab76 d7bc 58e8 2e3c decb dbbc 8468 7dbb
00000320: 4aaa abba 27b7 ba3c ae1b 08bd 8f79 f9bc
00000330: 28ca d6bc e2d4 cc3c bd4f 8ebc f3dc fb3c
00000340: 3cdf 3b3c 4776 073b fbfa 57bb 62ab 32bc
00000350: 916e 043b e5c3 46bc 7fe3 56bb 2202 0a3b
00000360: 8e6f 0cbd 614e c4bc f809 f03c 823c 11bd
00000370: f037 c0bb 3ed0 153d b5af 3b3c bbff f3ba
00000380: a03f 1abd 62d0 893c fcf4 00bd 4511 6bbc
00000390: 1176 86bc e017 12bc e381 27bb c6c0 f53c
000003a0: d8f2 023b 8e78 063d f5e2 af3c f7b8 e7bc
000003b0: 7ed0 743c db18 00bd 0b70 a3bc 77a3 0f3c
000003c0: e746 273c ac46 dd3c 5b0b 82bc 3a47 40bb
000003d0: 2d29 903c 83b5 2abd 9862 d43c c7be 13bd
000003e0: 5818 20bb 9a79 20bc ac18 c5bc fd55 163b
000003f0: ba74 f63c 7b98 70bc 060e dbbc 4cb4 91bc

fc1.bias f4 [64]
-0.011296312 -0.038439255 0.32025126 -0.00042174564 -0.013476621 -0.0041102916 -0.00018668211 -0.023407368
0.014768956 -0.023470445 0.03714212 0.11885965 -0.036518123 0.5519207 -0.00016856221 -0.00063140306
-0.0063098096 0.46364382 0.55162144 0.20649916 0.39179128 0.5161862 -0.013998792 -0.0022580188
0.4386118 -0.46449834 0.32329884 -0.03875896 0.07658395 0.583781 0.23376073 -0.028670684
-0.052677415 -0.00020645076 -0.00028728173 -0.0002540723 -0.029747263 -0.041212708 -0.00028999473 0.3108337
0.41957936 -0.021991374 -0.012917945 0.6327048 0.42040986 -0.038160693 -0.009742518 0.64694333
-8.562604e-05 -0.010698996 0.16518195 -0.0003621452 0.3248647 -0.014994072 0.4383256 -0.00029684167
-0.004386874 -0.0005188263 -0.0010153372 0.50450915 0.19383587 -0.0007482879 -0.028369399 -0.004952207
00000000: 2b14 39bc 7b72 1dbd f9f7 a33e be1d ddb9
00000010: 0ccd 5cbc a0af 86bb 19c0 43b9 cfc0 bfbc
00000020: 7ef9 713c 1745 c0bc 5622 183d b06c f33d
00000030: 0794 15bd ad4a 0d3f 13c0 30b9 be84 25ba
00000040: 85c2 cebb b962 ed3e 1037 0d3f 8474 533e
00000050: de98 c83e c724 043f 305b 65bc 45fb 13bb
00000060: ba91 e03e bad2 edbe 6d87 a53e b7c1 1ebd
00000070: 0cd8 9c3d ac72 153f f95e 6f3e c8de eabc
00000080: 46c4 57bd b47a 58b9 4d9e 96b9 0235 85b9
00000090: 88b0 f3bc a8ce 28bd 6f0a 98b9 9825 9f3e
000000a0: 1bd3 d63e 4127 b4bc caa5 53bc f1f8 213f
000000b0: f63f d73e 634e 1cbd 159f 1fbc 149e 253f
000000c0: 2192 b3b8 d74a 2fbc 7525 293e 4ede bdb9
000000d0: aa54 a63e b2a9 75bc 376c e03e 6aa1 9bb9
000000e0: c4bf 8fbb d801 08ba 1015 85ba 8327 013f
000000f0: e97c 463e c028 44ba f166 e8bc 2046 a2bb

ad1.weight f4 [32, 64]
0.054923333 0.027585372 -0.06294168 -0.017720511 0.0133294165 0.08027695 0.048998363 -0.08473742
0.09577873 -0.067593664 0.085186146 -0.08806117 0.003272891 0.021054005 0.013806773 0.109585606
-0.085500896 0.026490938 0.05751002 -0.042289667 0.07297709 -0.08111068 -0.058590434 -0.10475352
0.048645437 -0.0863993 -0.12589878 0.08577581 0.09496337 -0.014132176 0.017478121 -0.11100745
0.01484263 0.10864039 0.17252123 -0.051120102 -0.093219265 -0.07231744 -0.048737384 -0.078451425
-0.023556115 0.06386031 0.082072735 -0.03572139 -0.018912686 -0.09776471 -0.09745801 0.04236003
0.030858744 0.05316785 0.07330412 0.23873362 -0.0043841214 -0.024446398 0.096102916 -0.004632366
-0.022907417 0.044292074 -0.016635051 -0.019898653 -0.05270921 -0.02138576 0.0133874295 -0.0015717767
0.054916445 0.025690243 0.016175607 0.12163092 0.08318618 -0.08479504 -0.008991187 -0.02508068
0.16196619 0.07939046 -0.058051836 -0.0974075 -0.098406635 0.054387186 -0.051335834 0.0639233
0.047412246 0.048803467 -0.02991158 -0.0678097 -0.005354642 -0.055993147 -0.06753446 -0.10120164
-0.0002687036 -0.15122531 0.058683835 -0.032200307 0.08190325 -0.19174044 -0.11341701 -0.021311924
-0.04183873 -0.08785202 0.04461193 0.035363875 0.032117516 -0.0035800247 0.2148791 -0.18394716
0.030418057 0.053441297 0.048822477 -0.11308255 0.061257783 -0.0747496 0.21476302 -0.018685026
-0.056252904 -0.024426255 -0.11937157 0.11650613 -0.078642555 -0.057960883 0.059979755 -0.06066528
0.012733954 0.07942418 0.06916067 0.019525478 0.017365985 0.064512566 -0.059230596 0.003161382
-0.08202897 -0.121287346 -0.10143359 -0.14670528 -0.057020843 -0.10615599 0.09125842 -0.012942076
-0.13864292 0.074634925 -0.073107004 -0.13297312 -0.038313225 -0.009496763 0.003955362 -0.11258389
-0.029396985 0.0074143778 -0.084258005 -0.106897034 -0.013330967 -0.13777223 0.07106908 -0.01332846
0.05290498 0.04236415 0.06772755 0.1129622 0.008543573 0.09553933 0.013136847 0.011689588
-0.08066288 -0.1279557 -0.039598886 -0.071512364 -0.05647424 -0.10176815 0.03477758 -0.039483547
0.034223124 -0.09012978 -0.11676276 0.004662171 -0.04668561 -0.07233122 -0.07972713 -0.11528071
0.022642182 0.01973018 0.033395123 -0.09107678 -0.047234602 0.11654213 -0.034503862 0.006851013
-0.102831304 -0.01951265 -0.11959302 -0.092535086 0.090510756 0.108705506 0.09443849 0.024475142
0.12317286 -0.10524143 -0.13974401 -0.11102809 -0.097161695 0.10145378 0.02543084 -0.016777366
-0.0027883502 -0.0007116815 0.110987805 -0.113113806 -0.035791382 0.06786799 0.11992776 0.03544581
0.037712872 -0.075603105 0.04691311 0.08879681 0.08641508 0.05336287 0.12578642 0.06955151
-0.12848015 -0.07425419 -0.03796525 -0.087922364 0.053131826 -0.1386881 0.057690978 0.059463948
0.06900031 -0.10348266 -0.05106853 0.06198558 -0.042401154 0.024167972 0.112503156 -0.01866586
-0.038714506 -0.120226465 0.02737056 -0.0038341512 -0.06707546 -0.047652934 -0.023466498 0.0819157
-0.113848336 0.09550301 0.072383486 -0.05726391 -0.09843636 -0.06579262 0.032323763 0.095229715
-0.047368024 -0.052581966 -0.09751475 -0.09790579 -0.010695299 -0.004577428 0.11627609 0.09663235
00000000: 4af7 603d b8fa e13c 91e7 80bd 9b2a 91bc
00000010: a063 5a3c 3e68 a43d 82b2 483d d08a adbd
00000020: a427 c43d 8c6e 8abd 1376 ae3d 6a59 b4bd
00000030: 007e 563b 7379 ac3c ce35 623c 6b6e e03d
00000040: 181b afbd 8603 d93c a08f 6b3d ee37 2dbd
00000050: 0375 953d 5b1d a6bd 86fc 6fbd 0389 d6bd
00000060: 7040 473d 1ef2 b0bd 9ceb 00be 3aab af3d
00000070: 287c c23d a48a 67bc 472e 8f3c e057 e3bd
00000080: 812e 733c da7e de3d 68a9 303e 5063 51bd
00000090: bee9 bebd 2a1b 94bd daa0 47bd 24ab a0bd
000000a0: c1f8 c0bc 32c9 823d c015 a83d 9850 12bd
000000b0: c7ee 9abc dd38 c8bd 1198 c7bd b681 2d3d
000000c0: 7acb fc3c 88c6 593d 7820 963d 9676 743e
000000d0: ada8 8fbb d043 c8bc 9bd1 c43d 1acb 97bb
000000e0: 56a8 bbbc 9b6b 353d 3b46 88bc 8002 a3bc
000000f0: 9de5 57bd 3031 afbc f356 5b3c 1304 ceba
00000100: 11f0 603d 5874 d23c b582 843c a219 f93d
00000110: 845d aa3d 06a9 adbd c64f 13bc 0076 cdbc
00000120: 77da 253e 7797 a23d c3c7 6dbd 957d c7bd
00000130: 6b89 c9bd 19c5 5e3d 8645 52bd 38ea 823d
00000140: 5833 423d 25e6 473d 2109 f5bc d0df 8abd
00000150: fe75 afbb 1259 65bd 824f 8abd ce42 cfbd
00000160: c9e0 8cb9 cfda 1abe 765e 703d 78e4 03bd
00000170: e4bc a73d 9b57 44be 2d47 e8bd 5896 aebc
00000180: 175f 2bbd c3eb b3bd 00bb 363d b6d9 103d
00000190: a88d 033d d99e 6abb 4409 5c3e a55c 3cbe
000001a0: 4a2f f93c 43e5 5a3d 14fa 473d d397 e7bd
000001b0: 71e9 7a3d 5116 99bd d6ea 5b3e 5711 99bc
000001c0: 7269 66bd 9219 c8bc 1579 f4bd c49a ee3d
000001d0: 590f a1bd 6468 6dbd 55ad 753d 287c 78bd
000001e0: 13a2 503c 25a9 a23d 1ca4 8d3d e5f3 9f3c
000001f0: 1c43 8e3c 2a1f 843d c89b 72bd 302f 4f3b
00000200: cefe a7bd 8065 f8bd 6abc cfbd e939 16be
00000210: b08e 69bd 5068 d9bd b2e5 ba3d 000b 54bc
00000220: 69f8 0dbe 32da 983d 20b9 95bd 1b2a 08be
00000230: 54ee 1cbd 5098 1bbc fb9b 813b 6292 e6bd
00000240: f2d1 f0bc 4ff4 f23b 768f acbd d5ec dabd
00000250: 216a 5abc 2a14 0dbe aa8c 913d 9d5f 5abc
00000260: e4b2 583d 0886 2d3d beb4 8a3d ba58 e73d
00000270: 58fa 0b3c 20aa c33d ee3b 573c b085 3f3c
00000280: 9432 a5bd d206 03be 7132 22bd 1375 92bd
00000290: 8851 67bd d26b d0bd f072 0e3d 80b9 21bd
000002a0: 8c2d 0c3d f695 b8bd 5021 efbd 20c5 983b
000002b0: 6939 3fbd 6422 94bd fa47 a3bd 4b18 ecbd
000002c0: 197c b93c 30a1 a13c 53c9 083d 7686 babd
000002d0: 1279 41bd a4ad ee3d ec53 0dbd 767e e03b
000002e0: 3899 d2bd fed8 9fbc 2fed f4bd 0983 bdbd
000002f0: b45d b93d fea0 de3d f868 c13d 1880 c83c
00000300: 0d42 fc3d d288 d7bd 0e19 0fbe b262 e3bd
00000310: b6fc c6bd 00c7 cf3d 5654 d03c b070 89bc
00000320: c1bc 36bb 2390 3aba 934d e33d 36a8 e7bd
00000330: fc99 12bd 5ffe 8a3d af9c f53d a02f 113d
00000340: d078 1a3d cdd5 9abd f627 403d 1adb b53d
00000350: 64fa b03d 0693 5a3d 28ce 003e 0671 8e3d
00000360: 4d90 03be 9512 98bd 7381 1bbd a410 b4bd
00000370: c2a0 593d 4104 0ebe 604d 6c3d 7890 733d
00000380: 0950 8d3d b8ee d3bd 3c2d 51bd 97e4 7d3d
00000390: d5ac 2dbd e9fb c53c 0e68 e63d 25e9 98bc
000003a0: 1a93 1ebd 4b39 f6bd 3a38 e03c 6246 7bbb
000003b0: dc5e 89bd b92f 43bd d03c c0bc 6bc3 a73d
000003c0: 5129 e9bd 1597 c33d cb3d 943d 908d 6abd
000003d0: 0199 c9bd 48be 86bd ec65 043d cc07 c33d
000003e0: f904 42bd 3060 57bd d0b5 c7bd d582 c8bd
000003f0: 563b 2fbc 40fe 95bb 2922 ee3d 2ee7 c53d

ad1.bias f4 [32]
-0.014343183 -0.07834348 0.03298212 -0.07618414 -0.010212302 -0.0465771 -0.01813007 0.095430404
-0.3892736 0.070658505 -0.009460231 -0.06549819 0.012341767 0.017989963 -0.087929696 -0.07243024
-0.08788264 0.0042040497 -0.35386604 0.0044643963 -0.12324074 -0.49800152 0.250721 0.34037724
-0.07128017 -0.09369737 -0.27330798 0.11454328 -0.2739319 -0.024425479 -0.18552893 0.7028448
00000000: abff 6abc 8c72 a0bd 4218 073d 6e06 9cbd
00000010: 8051 27bc a1c7 3ebd 8385 94bc 0471 c33d
00000020: df4e c7be 68b5 903d 16ff 1abc ea23 86bd
00000030: 1f35 4a3c b05f 933c 7c14 b4bd 4e56 94bd
00000040: d0fb b3bd 20c2 893b ee2d b5be 124a 923b
00000050: a465 fcbd 0efa febe 815e 803e ed45 ae3e
00000060: 56fb 91bd 68e4 bfbd 06ef 8bbe ab95 ea3d
00000070: cd40 8cbe f117 c8bc 4cfb 3dbe a3ed 333f

ad2.weight f4 [4, 32]
-0.11890955 0.11673489 -0.008892242 0.0745887 -0.09790852 -0.0017931595 0.033495035 -0.10953141
0.3424894 0.14953342 -0.032319985 0.108916 0.16213587 0.070642725 0.027020793 -0.16269948
0.10652141 0.10949964 0.2861083 -0.012638273 -0.01832956 0.29242903 -0.258907 -0.50540936
0.15547599 -0.06297017 0.18561663 -0.031310033 0.14226076 -0.08288938 0.23517348 0.71642137
0.05693155 0.14540626 -0.15059535 -0.034252252 0.14660387 -0.061066296 -0.12016196 0.13658376
-0.48511067 0.032253735 0.100982904 -0.10296195 -0.07801492 -0.0647926 0.12968186 -0.10158914
-0.11718075 -0.13468853 -0.17042658 -0.018511804 0.054695636 -0.09896546 0.3148419 0.18895184
-0.029877141 -0.05048056 -0.22320488 -0.11944327 -0.31408355 0.055136465 -0.19023784 -0.3575567
-0.08637529 0.00710937 -0.03297464 0.09529856 -0.15458402 -0.13362516 -0.10377106 0.041615725
-0.029581945 0.14443983 -0.15004805 0.0028013736 -0.17292914 -0.0072268397 0.015229638 -0.14505236
0.108169064 -0.08622256 -0.15369417 -0.074289165 -0.13583907 -0.1633086 -0.15899687 0.071462855
0.11351512 0.06784247 0.004061161 0.075790614 0.15430263 0.09343419 0.13781211 -0.121549845
-0.15145066 0.12039192 -0.0010165495 0.115400076 -0.15697117 0.06671042 -0.121372886 0.11800095
-0.050359465 0.061649628 0.089249514 0.03679371 -0.10330321 -0.08074712 0.14140962 -0.02671622
-0.035858154 0.12958966 -0.16660134 -0.05142584 0.1616823 0.02336682 0.4045933 0.17085488
0.03100413 -0.099527165 0.16785456 -0.108890966 -0.1649366 -0.080164455 -0.13813384 -0.2882479
00000000: da86 f3bd b412 ef3d c4b0 11bc f6c1 983d
00000010: 4384 c8bd 7308 ebba 1732 093d 0152 e0bd
00000020: c55a af3e 4a1f 193e f661 04bd 5a0f df3d
00000030: f206 263e 22ad 903d b65a dd3c b19a 26be
00000040: e627 da3d 5941 e03d c97c 923e c210 4fbc
00000050: e027 96bc 42b9 953e 758f 84be 8262 01bf
00000060: 1935 1f3e 81f6 80bd 4912 3e3e f33e 00bd
00000070: ceac 113e e8c1 a9bd 51d1 703e 6467 373f
00000080: 0f31 693d 61e5 143e ab35 1abe 174c 0cbd
00000090: 531f 163e a720 7abd 7917 f6bd 9ddc 0b3e
000000a0: 6d60 f8be 7e1c 043d 20d0 ce3d b7dd d2bd
000000b0: 49c6 9fbd fcb1 84bd 52cb 043e f80d d0bd
000000c0: 76fc efbd caeb 09be 4e84 2ebe 11a6 97bc
000000d0: 8808 603d 67ae cabd f532 a13e 977c 413e
000000e0: e8c0 f4bc b4c4 4ebd d28f 64be ac9e f4bd
000000f0: 8fcf a0be c6d6 613d b5cd 42be ac11 b7be
00000100: 87e5 b0bd b8f5 e83b 6b10 07bd e42b c33d
00000110: 464b 1ebe 09d5 08be ec85 d4bd 4075 2a3d
00000120: d655 f2bc 09e8 133e 32a6 19be 4097 373b
00000130: 5614 31be 20cf ecbb bb85 793c 9b88 14be
00000140: be87 dd3d 7495 b0bd 0162 1dbe eb24 98bd
00000150: 6619 0bbe 5f3a 27be 13d0 22be 1e5b 923d
00000160: 9e7a e83d fef0 8a3d 7d13 853b 1c38 9b3d
00000170: 8201 1e3e 6d5a bf3d 9e1e 0d3e 20ef f8bd
00000180: e215 1bbe 0a90 f63d be3d 85ba e056 ec3d
00000190: 0dbd 20be 799f 883d 5992 f8bd 7baa f13d
000001a0: ba45 4ebd 5284 7c3d 73c8 b63d 00b5 163d
000001b0: a290 d3bd bf5e a5bd afcd 103e f9db dabc
000001c0: 00e0 12bd 27b3 043e 8b99 2abe e7a3 52bd
000001d0: 0b90 253e c66b bf3c da26 cf3e 95f4 2e3e
000001e0: 60fc fd3c e6d4 cbbd 11e2 2b3e 3a02 dfbd
000001f0: 24e5 28be 432d a4bd f572 0dbe 3b95 93be

ad2.bias f4 [4]
-0.22167931 0.24782933 0.06233071 0.15896432
00000000: e7ff 62be f9c6 7d3e 7d4e 7f3d 8bc7 223e

va1.weight f4 [32, 64]
0.07419276 0.02237688 0.13434602 0.10248441 0.10465992 -0.09435497 0.11888374 -0.00022652745
0.27116334 0.09334145 0.0336263 0.08162876 0.098405294 0.14074576 0.078137636 0.06256232
0.10404514 -0.05766078 0.021285951 -0.028554292 0.17707297 0.03112374 -0.07618882 -0.101083994
-0.042636946 -0.11412304 0.12928538 0.040029705 0.09054152 0.040330652 0.039719652 0.013708517
-0.017395256 0.008511793 0.031461615 -0.008021091 0.034805696 -0.104902156 -0.048894163 0.026459962
0.10587021 0.043516364 -0.08663817 0.18292984 0.053450204 0.07056971 -0.09310002 0.005429419
0.07388501 -0.0036973197 -0.08307562 -0.05500661 0.1295256 -0.021768346 -0.028639836 -0.05562647
-0.05068621 0.09876904 0.058792938 -0.054110948 0.05258826 0.05215484 -0.10552908 0.11550522
0.07144623 -0.0015319884 0.12357584 0.07971619 -0.10927241 0.024231061 0.11585957 -0.03815873
0.14019024 -0.011683883 -0.010353395 0.007884265 -0.010988695 -0.023391824 0.068998545 -0.07999643
-0.059852608 0.043650724 -0.05335874 0.023560042 0.16306174 0.17762601 -0.094460085 -0.045776922
-0.07303918 0.055318903 0.09159733 0.10764028 0.0035028332 0.0030941975 0.13639404 -0.021945238
0.13830352 0.082026824 -0.003014973 0.01691277 -0.09312577 -0.08004676 0.12325578 0.2536877
0.12582007 -0.092855066 0.12448829 0.056640353 0.18306829 0.011901419 0.054563858 -0.12184776
0.0412799 -0.104980156 -0.14229575 -0.05711321 0.13232039 0.051578745 0.0732648 0.08812053
0.0492554 0.06063119 0.053792533 0.06597281 0.133427 -0.07813044 0.039012335 -0.07107966
0.033357218 0.050711215 -0.026279332 -0.07713203 -0.10795723 0.024508402 0.027401686 -0.10326366
0.1052674 0.050042212 -0.17089134 -0.032802574 0.032157272 -0.057901986 0.0756058 0.04494185
-0.113558106 0.05957621 0.070268415 -0.03185595 0.0027522754 0.01338091 -0.053530812 -0.03088983
-0.07584667 -0.03587586 -0.02683445 0.048274815 -0.17079867 0.10191146 0.028186304 0.09575394
-0.09290086 0.01087517 0.0070240237 0.01434032 -0.08348785 -0.09255582 -0.086955115 0.020248182
0.032724492 0.07003854 -0.09748447 0.15515651 -0.09205573 -0.003305599 0.032434095 0.301417
0.05782097 0.009338975 0.0460142 0.0893959 -0.010490271 0.0803394 0.15641224 -0.06846258
0.0039885193 0.07214259 0.028355474 0.16086574 -0.1035545 -0.077030376 0.06440617 0.02383247
-0.09546164 -0.11658281 0.0029085577 0.050383568 -0.08803122 -0.08065364 -0.00016705692 -0.08315152
-0.09913723 -0.087408096 0.11313461 0.12139149 0.059397787 0.11763924 -0.06330134 0.10559532
-0.11257765 -0.0452767 -0.08802505 -0.1122669 -0.01913087 -0.063474 0.08126907 0.0405695
-0.048816487 -0.05233182 0.0877451 0.07625845 -0.1079278 0.124509424 -0.08148536 0.060017765
-0.07588507 0.016465887 0.10863091 -0.061955497 0.07474361 -0.038467377 -0.06765099 -0.05996771
-0.0979888 0.0712084 0.023668423 -0.041146696 -0.06797859 -0.05944395 -0.08911298 -0.07908051
0.106592625 0.03898856 -0.07237254 -0.049777195 -0.0605049 0.0061816275 -0.052941382 0.019715443
-0.06514785 0.0740301 -0.06598388 -0.05656925 0.06423375 -0.03236091 0.047684282 -0.09037699
00000000: 60f2 973d b84f b73c 0192 093e 59e3 d13d
00000010: f157 d63d 2e3d c1bd 5179 f33d 0088 6db9
00000020: ecd5 8a3e cd29 bf3d bbbb 093d fb2c a73d
00000030: b788 c93d a81f 103e a006 a03d ac20 803d
00000040: 9e15 d53d b62d 6cbd e05f ae3c b1ea e9bc
00000050: 9e52 353e 37f7 fe3c e208 9cbd 2005 cfbd
00000060: 14a4 2ebd 57b9 e9bd 6363 043e 30f6 233d
00000070: d56d b93d c131 253d 13b1 223d b099 603c
00000080: 7f80 8ebc 0c75 0b3c e5dd 003d e56a 03bc
00000090: 6b90 0e3d f1d6 d6bd 3f45 48bd 90c2 d83c
000000a0: 7bd2 d83d 373e 323d 5a6f b1bd f651 3b3e
000000b0: 9aee 5a3d da86 903d 39ab bebd 45e9 b13b
000000c0: 0651 973d bb4e 72bb 8d23 aabd 9c4e 61bd
000000d0: 5ca2 043e 8853 b2bc 179e eabc 95d8 63bd
000000e0: 589c 4fbd 6c47 ca3d ddd0 703d 71a3 5dbd
000000f0: ca66 573d 50a0 553d a11f d8bd 008e ec3d
00000100: 6752 923d 00cd c8ba 5415 fd3d 3e42 a33d
00000110: 37ca dfbd 3880 c63c c847 ed3d 544c 1cbd
00000120: 088e 0f3e c26d 3fbc 49a1 29bc 012d 013c
00000130: ed09 34bc 36a0 bfbc 1c4f 8d3d 2bd5 a3bd
00000140: 0228 75bd 1acb 323d b28e 5abd fd00 c13c
00000150: a8f9 263e 98e3 353e 4a74 c1bd 9580 3bbd
00000160: 9195 95bd 1396 623d 6297 bb3d 8272 dc3d
00000170: ca8f 653b 05c8 4a3b e1aa 0b3e 80c6 b3bc
00000180: 709f 0d3e aefd a73d da96 45bb a68c 8a3c
00000190: b9b8 bebd 8eef a3bd 876d fc3d 5be3 813e
000001a0: fad6 003e cc2a bebd b7f3 fe3d b7ff 673d
000001b0: 4176 3b3e 2bfe 423c 5a7e 5f3d 528b f9bd
000001c0: 1d15 293d d6ff d6bd fab5 11be 8bef 69bd
000001d0: ff7e 073e 3c44 533d db0b 963d 8978 b43d
000001e0: 08c0 493d 6958 783d 8f55 5c3d c11c 873d
000001f0: 16a1 083e da02 a0bd 66cb 1f3d 3692 91bd
00000200: 94a1 083d 90b6 4f3d c147 d7bc 66f7 9dbd
00000210: ae18 ddbd d8c5 c83c 8079 e03c e67b d3bd
00000220: 6f96 d73d 10f9 4c3d 24fe 2ebe fe5b 06bd
00000230: 58b7 033d a22a 6dbd 37d7 9a3d f214 383d
00000240: 2791 e8bd 2f06 743d e3e8 8f3d 627b 02bd
00000250: 855f 343b 9b3b 5b3c 2043 5bbd ab0c fdbc
00000260: 8055 9bbd 91f2 12bd ecd3 dbbc d0bb 453d
00000270: d9e5 2ebe f5b6 d03d f7e6 e63c a41a c43d
00000280: ce42 bebd c52d 323c c829 e63b a9f3 6a3c
00000290: aefb aabd e88d bdbd 8615 b2bd 84df a53c
000002a0: 1e0a 063d 5e70 8f3d f0a5 c7bd 59e1 1e3e
000002b0: b787 bcbd c0a2 58bb 9dd9 043d 5453 9a3e
000002c0: aed5 6c3d 8002 193c 6379 3c3d 3315 b73d
000002d0: 63df 2bbc fc88 a43d 882a 203e 1c36 8cbd
000002e0: 20b2 823b 7fbf 933d bd49 e83c fdb9 243e
000002f0: 6214 d4bd 1ac2 9dbd 62e7 833d 503c c33c
00000300: 6481 c3bd f8c2 eebd 809d 3e3b 005f 4e3d
00000310: b649 b4bd bc2d a5bd 002c 2fb9 584b aabd
00000320: 7608 cbbd 0403 b3bd 1eb3 e73d 1a9c f83d
00000330: 184b 733d d8ec f03d 22a4 81bd 5c42 d83d
00000340: 1c8f e6bd 1074 39bd 7a46 b4bd 30ec e5bd
00000350: 58b8 9cbc a8fe 81bd 6670 a63d 342c 263d
00000360: ccf3 47bd e459 56bd b4b3 b33d 642d 9c3d
00000370: 4009 ddbd ccfe fe3d cce1 a6bd 30d5 753d
00000380: a269 9bbd 78e3 863c e279 de3d 0cc5 7dbd
00000390: 2e13 993d f88f 1dbd 9a8c 8abd b4a0 75bd
000003a0: 5aae c8bd b6d5 913d 48e4 c13c 7089 28bd
000003b0: 5c38 8bbd 807b 73bd de80 b6bd f6f4 a1bd
000003c0: 3c4d da3d 78b2 1f3d 0e38 94bd 2ce3 4bbd
000003d0: fcd3 77bd 408f ca3b 10d9 58bd 4882 a13c
000003e0: 3c6c 85bd 189d 973d 8e22 87bd 28b5 67bd
000003f0: fc8c 833d e08c 04bd 9850 433d 9217 b9bd

va1.bias f4 [32]
0.37495992 0.5149753 0.53291106 -0.012127623 0.48911232 0.5283918 -0.07749741 -0.09670934
0.31748945 0.0043480843 -0.058594912 -0.08530711 -0.2354374 -0.111607336 -0.11717448 0.39465225
0.012454353 -0.08348942 0.24454115 0.24143715 -0.023079555 0.570641 0.21018167 0.25501794
-0.13022539 0.4546822 0.53008825 -0.10336022 0.40750918 -0.022764398 -0.121261604 -0.011497289
00000000: bffa bf3e 6cd5 033f dc6c 083f f0b2 46bc
00000010: ee6c fa3e af44 073f f6b6 9ebd 8c0f c6bd
00000020: fa8d a23e 607a 8e3b 3801 70bd 7eb5 aebd
00000030: 8016 71be 6392 e4bd 2cf9 efbd dc0f ca3e
00000040: 580d 4c3c 80fc aabd ff68 7a3e 4d3b 773e
00000050: 5611 bdbc 8715 123f dd39 573e b691 823e
00000060: ce59 05be 1bcc e83e ddb3 073f 86ae d3bd
00000070: 0ba5 d03e 677c babc 0158 f8bd 205f 3cbc

va2.weight f4 [1, 32]
0.103724234 0.1997069 -0.5527237 0.12354465 0.23671632 0.067111894 0.03476569 -0.085189745
-0.31095123 -0.089516975 0.04851505 0.06700708 -0.08601184 -0.07814698 0.0046417117 0.14391944
-0.140144 -0.10944845 -0.1760233 -0.31474835 -0.11487991 0.16324657 -0.19520271 -0.2342225
-0.15997928 0.104491554 0.07576138 -0.043348175 -0.56353825 -0.14140354 -0.050742228 -0.073668644
00000000: 5f6d d43d f77f 4c3e 4d7f 0dbf fa04 fd3d
00000010: c365 723e f671 893d 7866 0e3d f677 aebd
00000020: 0035 9fbe ad54 b7bd b8b7 463d 023b 893d
00000030: fa26 b0bd 860b a0bd 8019 983b 9e5f 133e
00000040: e981 0fbe 8226 e0bd 743f 34be b226 a1be
00000050: 2946 ebbd 1c2a 273e 38e3 47be 06d8 6fbe
00000060: 9cd1 23be abff d53d c828 9b3d db8d 31bd
00000070: 0b44 10bf 17cc 10be 15d7 4fbd 96df 96bd
